models/iris_model_complete.pth (torch, 5221 bytes, 6 tensors)

weight f4 [10, 4]
00000000: 0fd3 5cbf 49e8 083f 22ee a6bf fa6f 65bf
00000010: 8c1a 71bc c2d6 8bbe ca9a 1f3f e1ac 723f
00000020: a34c 873c ddc9 78be 5047 133f a653 2c3f
00000030: bd31 233e f392 203d df96 81bf a1da a7be
00000040: 9910 043f 4cab 59bf bb2f 05bf 0c0e b2be
00000050: 2c29 d63d df91 febe 8f16 543f b10e 683f
00000060: 1bd4 8c3e b0b4 0dbf 3205 1cbf 4aed b33e
00000070: 8645 f0be 930b dfbe cac9 a7be 6d23 4e3e
00000080: 02bc 443d eec6 e13e 4833 293e 0c46 f13d
00000090: 2f0a 7cbf 1b79 283f d588 46bf 24a4 5fbf
-0.8625955 0.5347944 -1.3041422 -0.8962399 -0.014715802 -0.27312285 0.62345564 0.9479504
0.016516035 -0.24295755 0.5753069 0.6731514 0.15936942 0.03920264 -1.0124167 -0.32783988
0.51587826 -0.85027003 -0.52025956 -0.34776342 0.10457072 -0.49720666 0.8284692 0.9064742
0.27505574 -0.5535383 -0.6094543 0.35141975 -0.46928042 -0.43563518 -0.3277114 0.20130701
0.04803086 0.44097084 0.16523468 0.117809385 -0.9845304 0.6580979 -0.7755254 -0.87359834

bias f4 [10]
00000000: 2153 90bd cb84 91be 489a ccbe 818e 893f
00000010: 9891 963e 6c4a d4be fc83 aebe dc50 91be
00000020: 7514 123e a8ab 263b
-0.070471056 -0.28421625 -0.39961457 1.0746614 0.29407954 -0.4146303 -0.3408507 -0.28382003
0.14265616 0.0025431905

weight f4 [10, 10]
00000000: e0d5 413f f337 e43e afef fd3e 940b eb3d
00000010: 783d babe 2e00 1c3f 0fa2 21bf 895d d23d
00000020: 0827 4b3e de1d 873f 4947 4d3f 830b 7abe
00000030: 3f84 59bf ef8f 523f a244 80bd 02af d4be
00000040: 82c2 2abf 1540 d4be c849 e83c 0ee8 f83e
00000050: 2468 8abf 3e1d cfbe a4c7 47be 800e 8b3f
00000060: 4576 5e3f 3f5c 47be da42 933e a347 a13e
00000070: eae4 873e e4d6 49bf 4e7c 4a3e ed11 093f
00000080: f93c 8e3e 8d7b 1abf 19bd 2abf f758 563f
00000090: b215 c4be 6bff 9a3e 6fde 8d3e 6637 83be
000000a0: 98fd f13e 02fa a3be 080e 493d 00f3 403f
000000b0: 5e54 173f 9db9 41be 25f5 173f a01a 49be
000000c0: 01c7 30be e1e3 253f 0e48 00be 2d16 323f
000000d0: 55fa ef3e 5d5a d5be b11b f4be 1421 ed3e
000000e0: 7139 d5be fcf6 8f3d 0066 8e3d 4811 2f3e
000000f0: 5412 83bd 28e9 2fbe b178 973e ec01 8dbe
00000100: 2efc 53be c0fd 43bc 2344 41be 4088 6abc
00000110: 7981 97be 9ab7 403e b737 49bf 9337 a3be
00000120: 11f6 46bf 9d63 8e3f a829 e43e 9117 dbbe
00000130: 368a 363f d4a5 c23e ddeb 4a3e e82c 86bf
00000140: 37ce 06be a0cb 173e 6a3d 273f 32d4 a5be
00000150: 6029 06bf b7ea 133f f3c0 65bf af5d 033f
00000160: f98a f73e 4b48 aebb 9a60 a4be 74aa 1b3f
00000170: 75b4 1fbe ec4a 383c 74fb bd3e bb6a 2a3f
00000180: 396d 40bf 5a46 8f3e 7c3a d73e 2dcc 43be
0.7571697 0.44573936 0.49596927 0.11476818 -0.36375022 0.60937774 -0.63137907 0.10271747
0.19839108 1.055599 0.801869 -0.24418454 -0.84967417 0.82250875 -0.06263091 -0.4153977
-0.66703045 -0.4145514 0.028355494 0.48614544 -1.0813031 -0.40451998 -0.1950975 1.08638
0.86899215 -0.19468783 0.2876194 0.31499967 0.26541835 -0.7884352 0.19773981 0.5354298
0.27780893 -0.60344774 -0.6669479 0.837295 -0.38297802 0.30272993 0.27708766 -0.25628203
0.4726379 -0.32026678 0.049085647 0.7537079 0.5911311 -0.18918462 0.59358436 -0.19639063
-0.17263414 0.6480084 -0.12527487 0.6956509 0.46870676 -0.41670504 -0.47677377 0.463143
-0.41645387 0.070295304 0.06953049 0.17096436 -0.0639998 -0.17178786 0.29584268 -0.2754053
-0.20701668 -0.011962354 -0.18873648 -0.014314711 -0.29590967 0.18820038 -0.7860064 -0.31878337
-0.7771922 1.112415 0.4456303 -0.42791417 0.71304643 0.38017142 0.19816537 -1.0482454
-0.13164602 0.1482377 0.65328085 -0.32388455 -0.52406883 0.5778002 -0.8974754 0.51314825
0.48348215 -0.0053186766 -0.3210495 0.60806966 -0.15596183 0.0112483315 0.37105906 0.6656911
-0.7516666 0.2798336 0.42036808 -0.19120856

bias f4 [10]
00000000: ea4e e8be 5852 183f 2263 023f ff83 ecbc
00000010: 5b2d d73e be1c bf3b 8fb3 92be d751 103f
00000020: fcd3 9d3c b05e 213f
-0.45372707 0.59500647 0.50932515 -0.028871534 0.4202679 0.0058322838 -0.28652617 0.5637488
0.019266121 0.63035107

weight f4 [3, 10]
00000000: a761 853e 0f1d 2a3f fdaa a1bf 05af 11bf
00000010: c24b 0c3f 58a4 48bf d218 b2bd 72a9 69bf
00000020: 2a5b 73bf 0c7f 8ebf 7455 1abf 098c c43e
00000030: b1ea 793f d6d8 cebe d649 3f3d 0c30 14bf
00000040: 5dd4 e0bd 2d9d 343f 7db9 e3bc 2ab8 a63e
00000050: cbc4 253e e6ba d9be 9288 ddbe 156d f43e
00000060: 67dd 32bf cdd6 153f b9af 96be af92 27bf
00000070: 501d bd3e e98b d63e
0.26051065 0.6645059 -1.2630306 -0.56907684 0.548031 -0.7837577 -0.0869614 -0.9127418
-0.9506098 -1.1132522 -0.6028664 0.38388088 0.97623736 -0.40399808 0.046701275 -0.57885814
-0.10978005 0.7055233 -0.027798409 0.3256238 0.16188352 -0.42525405 -0.43268257 0.47739473
-0.69869083 0.58530885 -0.2943094 -0.65458196 0.36936426 0.41903618

bias f4 [3]
00000000: 1c6c f6be 478f ae3d c29d 95be
-0.48129356 0.08523422 -0.29221922
